models/scallop_classifier.pt (torch, 251474 bytes, 10 tensors)

cell_digit_net.feature_extractor.0.weight f4 [6, 1, 5, 5]
000000 cf 8a 9c be 51 56 63 be 0e 24 89 be 00 f1 2a bd
       -0.30574653 -0.22200896 -0.2678532 -0.04173374
000010 0a dd 14 3e f8 1b f8 3d 90 6d df be 04 40 b5 bc
       0.14537445 0.121147096 -0.43638277 -0.022125252
000020 36 e0 c6 3d 11 a7 7f bd c4 ae f5 3c 59 93 d3 be
       0.097107336 -0.062415186 0.029990561 -0.41323355
000030 88 ef 37 be 9f d4 84 bd a9 8d e4 3d c1 c0 43 bc
       -0.17962468 -0.06485867 0.11159832 -0.011947812
000040 54 56 8d be bc a4 1c bc f9 81 23 3e c8 13 90 3e
       -0.27604926 -0.00956076 0.1596755 0.28140092
000050 83 b8 6a be 9c ef b8 be a4 03 28 bd 85 df 10 3e
       -0.22921948 -0.36120307 -0.041019097 0.14147766
000060 49 b2 b4 3e 33 5b b4 3d 31 2d 80 be 68 00 bb be
       0.3529227 0.08806457 -0.25034478 -0.36523747
000070 52 61 5a be 8e 3a 34 be 6b ca 54 3d 05 3c b7 be
       -0.21326187 -0.17600462 0.051950853 -0.3578798
000080 11 0d de be 33 44 4d be 0f ba 5a be cd 70 b0 3d
       -0.43369344 -0.20045547 -0.21360038 0.08615265
000090 4a bd cf 3d f9 6b b8 bd 7a 32 83 3e e9 6f 31 3d
       0.10143526 -0.09004969 0.25624448 0.043319616
0000a0 81 dd c7 3e 1f 48 b3 3e 79 63 8b 3d 98 52 b2 3e
       0.39036182 0.35015962 0.06806082 0.3482864
0000b0 35 1c c7 3d ff 2f 07 3e d9 8b 4e 3d 85 0e d9 3d
       0.09722177 0.13201903 0.050426338 0.105984725
0000c0 51 2b 94 3d 0e 82 cd 3d ee 17 0c be 55 0f d5 bd
       0.072348244 0.100345716 -0.13681003 -0.10403315
0000d0 d1 d0 db 3d 7c cc 6b 3d b5 67 8a bc 04 94 62 be
       0.10733188 0.05756806 -0.016895154 -0.22126776
0000e0 6a d7 ce 3c 64 46 ef 3d 1e 6d ca 3d 62 ee 83 3d
       0.025249202 0.11683348 0.09884094 0.06441952
0000f0 23 3b 0c be ca 24 2e 3e 88 d4 12 be df a9 40 3d
       -0.13694434 0.17006221 -0.14338887 0.047037
000100 9e be fb 3d 1d a7 47 3d 6f c9 87 3d 47 74 b8 3c
       0.12292217 0.048743356 0.06630217 0.022516383
000110 24 16 bf bc 20 82 88 3e f1 ef 36 3e a1 e8 07 3e
       -0.023325987 0.26661777 0.17864968 0.13272335
000120 34 c2 b3 3d ee 7e 86 3d e5 b4 99 3c e8 41 00 bd
       0.08777276 0.06567179 0.018763015 -0.031312853
000130 ae cc 06 bd fe 58 5e 3e dd b0 cb 3d 29 f5 98 bd
       -0.03291004 0.21713635 0.09945843 -0.074686356
000140 78 aa af bc b2 36 88 3d 3a 89 71 3d 6b 7a 5b be
       -0.02144359 0.06651057 0.05896876 -0.21433417
000150 88 b2 bc bc 1b 2e 55 be c4 49 71 bd 91 b2 af 3d
       -0.02303435 -0.20818369 -0.05890824 0.08578981
000160 20 3c f4 bd 57 b1 3a be 27 27 63 be 5e 76 ce 3d
       -0.119255304 -0.18231712 -0.22182904 0.100811705
000170 0a 08 22 3e e3 4e 87 be 37 86 27 be 2c 2f 01 bc
       0.15823379 -0.26427373 -0.16359793 -0.007884782
000180 fa 55 00 3e 0e 0a e7 3c ff 74 a3 bd f5 a0 24 be
       0.12532797 0.028203037 -0.079812996 -0.16077025
000190 5b 0f 6e be 06 7e 80 be b7 f4 0d be e0 ae 89 bd
       -0.23248045 -0.25096148 -0.13862883 -0.06722808
0001a0 8e f8 5b be 6b 23 7f 3e df 38 57 bd 5f 26 e6 bd
       -0.21481535 0.24915855 -0.05254447 -0.112377875
0001b0 39 41 6d 3e ac c8 2a 3e 09 24 94 3e 1b 8f eb bd
       0.23169412 0.16678113 0.28933743 -0.115019046
0001c0 32 51 91 3e ec 0b d2 3e 94 f4 17 3e 6b 2a b7 3d
       0.2838226 0.4102472 0.14839393 0.089436375
0001d0 f7 bf 25 be 80 06 6a 3e a9 ad e4 3d 3c 29 2e be
       -0.1618651 0.22854042 0.111659355 -0.17007917
0001e0 27 63 5b 3c 93 58 eb be 7d 10 38 bd 58 7f 5a be
       0.013390339 -0.45966014 -0.0449376 -0.2133764
0001f0 e8 b0 d0 be 2b f7 88 be da b8 88 be 9c 1d 8c be
       -0.4075997 -0.26751074 -0.2670353 -0.2736634
000200 7f 8b 83 be 26 1f 8f be ac 0a 80 3d 1d 7e 15 be
       -0.25692365 -0.27953452 0.062520355 -0.1459889
000210 a7 b6 75 bd c2 ed 3c be 07 9e 77 be ef 25 6f be
       -0.059988644 -0.18450072 -0.24181376 -0.23354314
000220 b3 6a 47 be c0 2f 5a be 06 b7 b0 be 14 d3 12 3d
       -0.19474296 -0.21307278 -0.34514636 0.03584583
000230 d6 59 ae be 9e 50 89 be 1d a7 f2 bd 6b 24 84 bd
       -0.34052914 -0.2681932 -0.118482806 -0.06452259
000240 a9 ac cf be 0d 94 f1 bc 9f fc 71 be 9b 16 18 be
       -0.40561417 -0.029489541 -0.23631524 -0.14852373
000250 ea 43 e7 bc 31 9c 91 be
       -0.028230626 -0.28439477

cell_digit_net.feature_extractor.0.bias f4 [6]
000000 a2 4a 90 be 9a ea 4c be c4 bd 9f be 43 e9 67 3e
       -0.2818194 -0.20011368 -0.31199467 0.22647576
000010 18 25 8c bc b1 49 47 3e
       -0.017107531 0.19461705

cell_digit_net.feature_extractor.3.weight f4 [16, 6, 5, 5]
000000 74 c5 cd be 7c 6e 00 bf dd ef 2f bf 81 ce 2f bf
       -0.40189707 -0.50168586 -0.6872538 -0.68674475
000010 85 2e 18 be 49 75 00 bf 1f c4 21 bf 61 31 35 bf
       -0.14861496 -0.5017896 -0.6318988 -0.7077847
000020 77 e1 18 bf a4 b0 de bd c0 6d be be 2d 2c a8 be
       -0.5971903 -0.10873535 -0.37193108 -0.32846203
000030 6b cb 52 bf ae 69 3d bf 11 6e 07 be c2 45 8d be
       -0.8234164 -0.7398938 -0.13225581 -0.27592283
000040 14 65 6f 3d 61 af 2a bf 2e 9b 56 bf 80 0f 86 be
       0.058446005 -0.66673857 -0.83830535 -0.261837
000050 2c 3f 67 be cb c0 83 be 31 66 6d bf 06 6b 17 bf
       -0.22582692 -0.25733027 -0.92734057 -0.5914768
000060 3e f7 06 bf ba 76 4c be 1a 2c 73 be d2 36 b9 bd
       -0.5272101 -0.19967166 -0.23747292 -0.09043659
000070 35 53 d5 bd cf a4 4e be 6c 73 d1 be a6 a0 15 bf
       -0.10416261 -0.20180057 -0.40908372 -0.58448255
000080 ef 98 f8 be 57 9b 2b bf 8b 42 05 bf 67 fb 0b bf
       -0.4855418 -0.67033905 -0.5205466 -0.54680485
000090 09 3b 35 bf 37 a0 c3 be a0 a8 64 bf f5 cd 0a bf
       -0.70793205 -0.38208172 -0.893198 -0.54220515
0000a0 cc 6d f1 be 76 05 07 bf f7 1f c9 bd b0 31 1d bf
       -0.4715408 -0.5274271 -0.0982055 -0.6140394
0000b0 9e fd 23 bf 38 8a 03 bf 4f 60 4c bf 50 ca ed be
       -0.64058864 -0.5138278 -0.79834455 -0.46443415
0000c0 55 7e 4b bf ab e4 17 bf 7c 10 a4 3d 38 74 c9 3d
       -0.7948964 -0.59333295 0.08010957 0.0983662
0000d0 34 21 d7 3d 61 7f 81 3d b6 f5 51 3c 0f 2b ae 3d
       0.1050438 0.06323124 0.01281493 0.085043065
0000e0 d4 c8 c3 3c 08 c5 2b 3d 66 ff 90 3d 15 2c 53 3d
       0.023899473 0.04193595 0.070799634 0.05155571
0000f0 76 9f 89 3d c5 09 d0 3d 41 34 2e 3c a0 d0 be 3d
       0.06719868 0.101581134 0.0106325755 0.09317136
000100 93 d2 53 3c ca 3a 04 bd 4c ee 4b 3d 3c c0 db 3d
       0.012928623 -0.032282628 0.049787804 0.10730025
000110 77 0f 99 3d 3a 3a db 3d 71 c7 8f bc 69 64 a1 3d
       0.07473653 0.10704465 -0.017551156 0.0788048
000120 30 67 f6 bb 5f 14 77 3d cb a4 ec 3d 20 ec 42 bd
       -0.007519625 0.06032216 0.11554869 -0.047588468
000130 56 c6 c7 3d bd 83 b4 3d 0a db f9 3d ae 7f d1 bb
       0.097546265 0.088141896 0.121999815 -0.0063933944
000140 e8 88 73 3c 97 d3 31 3d fd f5 ab bb 8e 15 c3 3d
       0.014864184 0.04341468 -0.00524783 0.095255956
000150 8c c4 a2 bd 0f 15 b3 bd d8 92 61 bd 50 df 8f bb
       -0.079476446 -0.08744251 -0.05507168 -0.0043906346
000160 87 a2 f5 3c d6 b4 70 bd 48 70 0d be ea a3 71 bd
       0.029984726 -0.05876621 -0.13812363 -0.05899421
000170 5e 1d f9 bc d7 52 ed bc 97 75 4a bd 5d 2e 0d be
       -0.030409511 -0.028970165 -0.04942855 -0.13787217
000180 28 f7 4a be 66 9f 22 be 08 5f 19 be 15 8e 30 be
       -0.19820845 -0.15881118 -0.14977658 -0.172417
000190 fc 17 0b be 7c 4c 05 be 4a c2 22 be e6 44 69 be
       -0.13583368 -0.13017458 -0.15894428 -0.22780189
0001a0 8b c9 2b be 93 e8 56 be fe 5c 4c be 8c 68 ec bd
       -0.16776101 -0.20987158 -0.19957349 -0.11543378
0001b0 e6 91 43 be c9 6b a1 be 5c 8d c9 be 07 1c 9e be
       -0.19098625 -0.31527546 -0.3936566 -0.30880758
0001c0 1f c5 bc bd fd 7d 2e be cd f8 b1 be f7 42 5f be
       -0.09217285 -0.17040248 -0.34760132 -0.21802889
0001d0 a3 78 d4 be 5f 66 6a be 2f 77 9f be 25 6d ef bd
       -0.4149829 -0.22890614 -0.31145617 -0.116907395
0001e0 2b 40 a6 be 76 95 bf be 7e 3e c1 be 8c ca b6 be
       -0.3247083 -0.37418717 -0.3774299 -0.35701406
0001f0 1c 79 63 be d3 81 7d be 0d 36 9b bd 00 15 81 bd
       -0.22214168 -0.24756555 -0.07578669 -0.063028336
000200 4b 8f e7 bd f0 e2 0f be 6d 02 19 be 5b 73 22 3d
       -0.11306628 -0.14051414 -0.14942332 0.039660793
000210 32 16 c8 bc ff 40 0f bd 12 6a 19 be 29 30 58 be
       -0.024424646 -0.034974094 -0.14981869 -0.21112122
000220 7c 98 a0 3d 23 2c 35 bd ed f7 9f bd 22 fa cc bd
       0.07841584 -0.044231545 -0.0781096 -0.100086465
000230 35 e8 f5 be f7 e2 80 3d 84 d3 96 3d c9 42 c2 bc
       -0.48028722 0.0629329 0.07364562 -0.023713486
000240 f9 06 92 be 19 ec b3 be af 0e f7 bd 89 02 b9 bd
       -0.28520945 -0.35141066 -0.120633475 -0.09033687
000250 93 44 94 bd d8 84 6b be fa 81 c8 3d e3 5d 1a 3d
       -0.07239642 -0.22999895 0.09790416 0.037687194
000260 df 19 30 3e 8d 7f 37 3e a9 c0 c3 3d 71 f8 2c be
       0.17197369 0.1791975 0.095582314 -0.16891648
000270 80 97 23 be 93 97 11 be 09 37 1d bc 7e 9a fe bd
       -0.15975761 -0.14217977 -0.009595641 -0.12431811
000280 fb e4 9b be 27 39 ac bd 8c fc 65 bd d7 70 a2 bd
       -0.30448136 -0.084093384 -0.05614905 -0.07931679
000290 6d 3b 06 be 3a 47 97 be 5a 5d 6f bd 0b 83 0f bd
       -0.13108607 -0.2954653 -0.058438636 -0.03503708
0002a0 6b 5a 35 be 48 8b 90 be c4 0c 9a be 86 b8 4a 3d
       -0.17710273 -0.28231263 -0.30087864 0.04949238
0002b0 ff 1e ab bc e7 8a 5a be 02 8c ae be ed f6 85 3d
       -0.020888804 -0.2134205 -0.34091192 0.06541238
0002c0 d0 49 b7 3c b5 c1 a4 3b af c0 e6 bb b0 3d af 3d
       0.022374064 0.0050279745 -0.0070420126 0.08556688
0002d0 a6 bc b8 bd ad e8 a9 bd a1 f1 03 bc 60 85 eb bd
       -0.09020357 -0.082963325 -0.008053214 -0.11500049
0002e0 c9 38 89 3c d0 e2 a7 be b3 73 61 be 52 bf 1e be
       0.01675071 -0.32790232 -0.22016792 -0.1550267
0002f0 9c 44 10 be 63 09 80 be 6c 12 9e be 10 18 44 be
       -0.14088672 -0.25007161 -0.3087343 -0.19149804
000300 33 97 06 be 24 ae 00 be c3 25 bd bd 99 6c 3b 3d
       -0.13143615 -0.1256643 -0.09235718 0.045757864
000310 b9 c0 b5 3c 58 9a d8 bd a4 c0 3b be 58 67 21 be
       0.022186624 -0.10576314 -0.18335205 -0.15762079
000320 67 43 88 bc 7b a3 0e be 0e c2 2a be 02 96 52 be
       -0.016633702 -0.1392955 -0.16675588 -0.20565036
000330 05 0a 33 be d2 8c 89 bd 2a 2e 97 be 8b 56 99 be
       -0.17484291 -0.067163125 -0.29527408 -0.2994884
000340 b5 52 81 be ab 99 91 be 87 14 dc bd 7a 85 66 be
       -0.25258413 -0.28437552 -0.10746103 -0.22511855
000350 18 f0 83 be 11 b2 a4 be 3a b3 60 be 78 b5 06 be
       -0.25769114 -0.32167104 -0.2194337 -0.13155162
000360 1b f5 65 be e8 28 87 be 65 1b 33 be 52 2d 40 be
       -0.22456782 -0.26398396 -0.17490919 -0.18767288
000370 17 5b 8b be e9 a1 87 be 07 cc 8d be 04 c2 27 be
       -0.27217934 -0.26490715 -0.27694723 -0.16382605
000380 e9 dd 71 be 33 0c 9f bd 97 c9 10 3c e5 58 65 39
       -0.23619808 -0.07765999 0.008837125 0.00021872258
000390 8d 88 4f bd c7 91 33 3d 9a f5 59 bd 03 0e a1 bd
       -0.050667334 0.043840196 -0.05321274 -0.07864001
0003a0 6a e8 52 bd 38 44 82 bc de 21 8b bc df 4d a3 3c
       -0.05149118 -0.01590167 -0.016983923 0.019934593
0003b0 f2 ea 86 bd 7f 43 b1 bd 41 d3 b5 3c d1 02 bc 3d
       -0.06587781 -0.08655452 0.02219546 0.09180225
0003c0 5d cf 1a 3e 5e 63 9e 3d 9d 46 02 be 73 0d a8 3c
       0.15118165 0.077337965 -0.1272225 0.020514226
0003d0 28 22 3b 3d c8 03 4a 3d 6f 12 61 3d c1 e8 71 3d
       0.04568687 0.049320012 0.05494922 0.059059862
0003e0 86 99 40 bc c8 60 fd 3d 3f 94 b4 bc bd 3f d6 3d
       -0.011755353 0.12371975 -0.022043345 0.10461376
0003f0 79 d9 82 3c 31 7a 1c bd 85 9b ab 3d 1d fa b7 3d
       0.01597284 -0.03820247 0.08379272 0.08983252

cell_digit_net.feature_extractor.3.bias f4 [16]
000000 b0 22 14 3e 0c 45 78 3d 52 06 98 be d5 c7 a1 be
       0.14466357 0.060612723 -0.29692322 -0.31597772
000010 28 7d 72 be 96 a0 0b 3d 6f 7c f4 3d 3e a3 da bd
       -0.23680556 0.034088694 0.11937796 -0.10675667
000020 dc b1 34 be bc f4 14 3e 45 df 88 bd 19 b9 2b be
       -0.17645973 0.14546484 -0.0668321 -0.16769828
000030 2b 08 b1 be 15 08 38 3d d4 07 ef bd 59 6f f4 bb
       -0.34576544 0.044929583 -0.11671415 -0.0074595627

cell_digit_net.classifier.0.weight f4 [120, 400]
000000 15 96 1e 3e 6b ff 2f 3e 05 1c c0 bd fc bc ec 3d
       0.15486939 0.17187278 -0.09380344 0.115594834
000010 38 72 83 3e 77 0a dc bc a2 d8 12 bd fd ca 2b be
       0.2567308 -0.026860459 -0.03585113 -0.16776653
000020 6a ad e3 bd d1 ba 85 3d 33 73 de bc 56 a0 68 3d
       -0.111170605 0.06529773 -0.02715454 0.056793533
000030 ea 53 51 be b3 a0 30 be e5 23 11 be 82 2a ba bd
       -0.20442167 -0.17248802 -0.14173849 -0.09090139
000040 1f e5 4b 3d 4a 56 48 be 0c d6 91 be 2c 9e 07 bd
       0.049779054 -0.19564167 -0.28483617 -0.03310983
000050 65 a8 a0 bb 02 37 81 3d 68 a4 97 3c 02 47 40 bc
       -0.0049028867 0.0630932 0.018511012 -0.01173568
000060 9e 80 86 3d ec c6 c1 bd f8 60 b7 ba 45 33 b8 3c
       0.065675005 -0.094617695 -0.0013990691 0.022485385
000070 b9 1d f8 3d b1 b9 d8 3d 0b 48 31 bd 56 45 21 bd
       0.12115044 0.10582293 -0.043281596 -0.039372765
000080 f4 e9 c9 3b 80 d2 89 bd c2 89 0c 3d 8d 61 c9 bd
       0.0061619226 -0.06729603 0.034311064 -0.098330595
000090 d9 0a 00 be 54 21 e0 bd 80 45 77 be f4 37 21 bd
       -0.12504138 -0.10943857 -0.24147606 -0.03936
0000a0 22 10 0b bd 34 ac 89 bd 46 a5 89 3d a4 43 7d 3d
       -0.033950932 -0.06722298 0.067209765 0.061832085
0000b0 a4 a2 50 bd a3 f5 40 bd de 7d b1 bc c9 ef fd 3c
       -0.050936356 -0.047109257 -0.021666463 0.030998128
0000c0 8b e4 91 3d 36 3c 06 3d e2 af dd 3d 69 7a a5 3d
       0.07123669 0.032772265 0.108245626 0.080799885
0000d0 1b 3d 80 bb d8 7b 21 bc 50 14 5a bc 82 c8 38 3d
       -0.0039135343 -0.009856187 -0.013310507 0.045113094
0000e0 b0 7b e6 be a5 f1 db bc 0e a4 cf 3c 42 06 58 be
       -0.4501624 -0.026848624 0.025346782 -0.21096137
0000f0 a3 3e f6 bb fa 32 ac be 76 3c d2 bd 4a e9 79 bc
       -0.007514791 -0.33632642 -0.10265438 -0.015253374
000100 3c f2 d2 3d 9d 02 10 bd d6 e3 09 be 2b c5 a7 bd
       0.10300109 -0.035158742 -0.13465819 -0.08191904
000110 d4 b3 a0 bd b9 cb 85 bd b1 6a bb 3b 0b fd ad be
       -0.078467995 -0.06532998 0.0057195057 -0.3398212
000120 36 e5 10 be 42 33 4e bd a5 cd 83 be 19 cb 14 be
       -0.14149937 -0.050341852 -0.25742832 -0.145306
000130 29 e0 e1 bd 76 2e ef bd d6 74 8a be d5 31 bc be
       -0.11029083 -0.116787836 -0.27042264 -0.3675677
000140 22 c1 ab be b8 d5 9f be 35 09 7a be dc 2c 98 be
       -0.33545786 -0.31217742 -0.24417575 -0.29721725
000150 f7 35 e3 be a3 ab a0 be 95 50 c3 be 11 b4 11 be
       -0.4437711 -0.31380948 -0.38147417 -0.14228846
000160 9a 71 1d be cb 5d 90 be 8c 22 90 be 1f 8a 84 be
       -0.15375367 -0.28196558 -0.28151357 -0.25886628
000170 32 78 d9 bd 56 fc 56 be c9 0f b3 be e9 ab 8f be
       -0.106186286 -0.20994696 -0.3497298 -0.28060845
000180 2a 84 67 be 92 e0 47 be b1 ca 9c be d6 83 ec be
       -0.2260901 -0.1951926 -0.3062339 -0.46194333
000190 9b 9c e6 3d ae b3 e4 3d 67 d9 b8 3d 4e 52 a9 3c
       0.11260339 0.11167084 0.09025841 0.020669129
0001a0 f6 a4 cc bc b7 73 8f bc 6e 9d 5d bd e1 9c 0d bd
       -0.024981003 -0.017511232 -0.054105215 -0.03457344
0001b0 70 62 08 be ba 30 ca be eb 44 ff bd 32 8f ec bd
       -0.13318801 -0.394903 -0.12464317 -0.1155075
0001c0 cb e3 21 3e 20 4c 95 bd e6 06 a3 be 8c 9d 29 be
       0.15809552 -0.0728991 -0.318412 -0.16564006
0001d0 b2 bb 3f 3d f7 3a 23 3e 46 71 bf bd 73 84 b3 be
       0.04680986 0.15940462 -0.09347777 -0.35061988
0001e0 39 5b 98 bd 02 b9 0d bd 59 49 fd 3c a4 e8 fd bd
       -0.07439274 -0.034600265 0.030918764 -0.12397888
0001f0 41 4e fe be c7 f1 48 3c f0 94 40 3d b6 f3 15 3e
       -0.49669078 0.012264675 0.047017038 0.1464375
000200 4d 25 90 3c b0 81 5f 3d 5f b3 c6 bd ef 92 2f 3b
       0.017595911 0.05456704 -0.09702181 0.002679046
000210 55 a9 b1 3d b2 50 9a 3d e6 37 07 bd d0 3a 28 bd
       0.08674876 0.07534923 -0.033012293 -0.041071713
000220 8b 45 f4 bd c4 e3 2e 3d 97 11 17 3e 10 ae 08 3d
       -0.11927327 0.042697683 0.14752804 0.033369124
000230 85 1b b4 bc a1 1f 56 bd 19 82 04 3e ec 65 15 3e
       -0.021985779 -0.052276257 0.12940253 0.14589661
000240 46 91 37 3d 75 40 7e be 05 ad 8b be f7 1b 67 bd
       0.044816278 -0.24829276 -0.2728044 -0.056423154
000250 58 d0 41 bc bd 50 e8 bb 53 2d 0d be c3 9c 2c 3c
       -0.011829458 -0.007089703 -0.13786821 0.010535422
000260 fb 77 10 be a7 f5 ba bd 4b 67 10 bd ee 08 17 be
       -0.14108269 -0.09128886 -0.035254758 -0.147495
000270 8a 57 d8 bc cd 7c 81 be c8 b2 59 bd 9f 51 77 3e
       -0.02640893 -0.25290528 -0.053149015 0.2415223
000280 c2 76 2e be 3b 4b f2 3b 69 26 eb bc f0 cc f4 bc
       -0.1703749 0.007394222 -0.028704839 -0.029882878
000290 f0 8c 9b 3e a2 c4 4f be 5e f3 71 3c d2 e9 03 bd
       0.30380964 -0.20289853 0.014767496 -0.03220541
0002a0 17 5f 4b bc 5a cd 63 3e c3 12 4a be d4 e7 9d bd
       -0.012412808 0.22246304 -0.1973372 -0.07710233
0002b0 c7 e3 df bd b3 6d 2d be fd b7 12 3e 5a a4 a3 bc
       -0.10932117 -0.16936378 0.14327998 -0.01997583
0002c0 2f 95 16 bd b9 e0 f4 bd 18 36 9f bd 6f bf 1a bd
       -0.036763366 -0.11956925 -0.077739894 -0.03778022
0002d0 80 f7 2a 3e a3 1b db 3c 0d 43 ab 3c 21 f6 00 3c
       0.16695976 0.026746577 0.020905996 0.007871182
0002e0 af cb 1f be ad 30 15 3e ee 77 3e bd d2 e4 1c 3d
       -0.15605043 0.1456935 -0.046501093 0.038304158
0002f0 83 c7 11 3e d1 4d e8 b8 cb 0e 6f 3e 08 10 2e be
       0.14236264 -0.000110771165 0.23345487 -0.16998303
000300 9e af 41 3d 65 60 2a bc b2 a0 8e bd 1e 73 20 3e
       0.047286622 -0.010398959 -0.06964244 0.15668914
000310 64 28 6f be 93 59 1c bb 4c e5 7d bd f3 94 10 be
       -0.23355252 -0.0023857101 -0.061986253 -0.1411932
000320 75 6d 6e bc 67 02 eb 3b 7c 4a 8f bc f4 99 a8 bc
       -0.014552464 0.0071719172 -0.017491572 -0.020581223
000330 9c 4a 10 bd 43 30 c6 bd 83 c2 f9 3c 27 2c 6c 3e
       -0.035227403 -0.09677174 0.030488258 0.23063718
000340 be 4b a1 be 52 20 a2 be 4b 15 6d bd 9b c7 0e bc
       -0.315031 -0.31665283 -0.057881635 -0.008714582
000350 40 3b 8c 3d 94 c4 a7 be 63 6c 28 be 8b bd dd bc
       0.068472385 -0.32767165 -0.16447596 -0.02706792
000360 04 5d a6 bd e9 97 87 bd 7d c1 db bd 0f 56 e2 bd
       -0.0812321 -0.066207714 -0.10730264 -0.110515706
000370 36 11 00 bd 1a 3c 9b bd 85 f1 f7 3c 8a 08 2f be
       -0.031266414 -0.07579823 0.030266533 -0.17093101
000380 60 f7 ae be e7 fa 77 3d ee c1 bf 3d e5 b8 c0 3d
       -0.34173107 0.060542013 0.09363161 0.09410266
000390 7c 52 02 3e 59 6a af 3d 20 0f f0 bd 05 cb 60 bd
       0.12726778 0.08565206 -0.11721635 -0.054881115
0003a0 15 3c 0d 3e 6b af c2 3d 6c 1c 23 3d 3a d6 19 be
       0.1379245 0.095061146 0.039822027 -0.15023127
0003b0 3a 88 25 be 5e 02 11 3e aa 19 38 3e f2 6c 85 3e
       -0.16165248 0.1416106 0.1797854 0.2605968
0003c0 a5 a7 17 be 2e f3 d2 bc 3a 65 e1 3d e0 11 e7 3d
       -0.14810045 -0.025750723 0.110056356 0.11282706
0003d0 1b e9 6c 3e 43 9b 52 be 5e 55 85 be b8 50 99 bc
       0.23135798 -0.2056704 -0.26041692 -0.018715248
0003e0 1c 96 c3 3d 15 6c 08 3e 9c e6 f6 bd 62 be 95 bd
       0.095501155 0.1332248 -0.12055704 -0.07311703
0003f0 cd c3 e4 ba 4b d8 86 3c f9 2f 0f bc 62 bd b8 3d
       -0.0017453373 0.016460558 -0.008739465 0.09020497

cell_digit_net.classifier.0.bias f4 [120]
000000 1e ea 42 3e 0a 84 62 bd af 1d 15 bd 85 e5 5c bd
       0.19034621 -0.055301704 -0.03640526 -0.053929824
000010 3e 37 a5 3d 83 ab 92 bd 37 d0 9f bd c7 3b ee bc
       0.08067177 -0.071616195 -0.07803386 -0.029081238
000020 59 87 ed bc 8f 9f ae 3c e6 de 27 bd 06 c8 63 bd
       -0.028995203 0.021316318 -0.040984057 -0.05561068
000030 c6 d3 84 bd 9f 2b 39 3e a7 0b 3f 3e c4 28 09 bb
       -0.06485705 0.18083046 0.18656789 -0.002092884
000040 82 1b 75 3e b4 95 0c bc a6 f1 97 bd 01 93 09 3b
       0.23936275 -0.008580614 -0.07419138 0.0020992162
000050 1c 23 1f 3e 52 a9 23 bb 87 99 80 bb 3f 83 d0 3b
       0.15540737 -0.002497275 -0.003924552 0.006363302
000060 d9 1c 74 3e 80 93 ab bd 23 9e 91 bc 6d f1 97 be
       0.2383913 -0.08377743 -0.0177756 -0.2967638
000070 f3 d4 86 bc f2 42 09 3e 8f 2b 81 3e 5f 4b ae bd
       -0.016458964 0.13404444 0.25228545 -0.0851047
000080 54 43 a3 bd c1 a1 71 3d 60 14 19 be ab 3b 4e 3c
       -0.07971826 0.05899215 -0.14949179 0.012587468
000090 b9 86 c6 3b 30 d7 84 bd b6 8e 70 3c 54 5e 6c bd
       0.0060585407 -0.06486356 0.014682462 -0.057707146
0000a0 e6 a9 0f bd aa 0a 1e bd 00 d2 43 be e4 17 79 bd
       -0.035074137 -0.03858439 -0.19123077 -0.0608138
0000b0 2b 20 7f bd cc a4 4b be cd 3b 56 bd 1c 89 5b bc
       -0.062286537 -0.19887084 -0.052303124 -0.013399389
0000c0 00 40 65 bd ed 56 52 3c 6c 32 de bc 2e 03 00 3a
       -0.05596924 0.0128381075 -0.027123652 0.00048832863
0000d0 4f 20 43 bd 5b 23 0d 3e 6a 48 6d 3e 5a 7c 03 be
       -0.047638234 0.13783018 0.23172155 -0.12840405
0000e0 ad 2b 2f bd c8 84 f6 bc 2d 26 a3 3c ef bc 8e bc
       -0.04276626 -0.030092612 0.019915665 -0.017424075
0000f0 0e 28 4b 3d a7 a9 7f bd 64 97 5c bd e9 fb 76 bd
       0.049598746 -0.062417652 -0.053855315 -0.060298834
000100 df 45 28 bd 5e 4d 23 3e a3 70 24 3e 5b cb 0a bc
       -0.04108226 0.15947482 0.16058592 -0.008471335
000110 cc 4d 7f bd 2a 12 8d 3e 88 f3 63 bd 04 25 6e bd
       -0.062330052 0.2755292 -0.05565217 -0.05814077
000120 52 0e 2a 3d 2a 3c 11 be a5 52 0e 3a f5 73 59 3e
       0.041517563 -0.14183107 0.0005429185 0.2123564
000130 40 f4 57 3e 2c 4a 7d be ea bd 45 be ba 19 33 3d
       0.21089268 -0.24735326 -0.19310728 0.043725707
000140 4c b3 3d bd a0 7e f0 3b 76 31 84 bd 49 df 24 bc
       -0.04631357 0.0073393136 -0.064547464 -0.010063001
000150 6c 38 a7 3d 7d 3c de 3c 96 4a 39 bd 29 2e 78 3e
       0.081650585 0.027128452 -0.045237146 0.24236359
000160 dd 73 82 bd 0f a6 80 3b 33 4c 35 bd 18 67 d0 bc
       -0.063697554 0.0039260457 -0.044262122 -0.025439784
000170 55 30 f0 bd f4 ef 2a 3e 15 62 2f bd 83 c2 4a bc
       -0.117279686 0.16693097 -0.042818148 -0.012375477
000180 a2 25 82 3b 4e 41 f5 3d b0 82 93 bd 3c dc 19 3c
       0.0039717713 0.119753465 -0.07202661 0.009390887
000190 a7 b2 76 3d ac 5e 0e be fd b0 51 3d 2f 7f ad 3b
       0.06022897 -0.13903302 0.05119418 0.0052947025
0001a0 43 4b 4f 3e 50 19 7b bc be 40 11 3e ee 7f 37 bc
       0.20243554 -0.015325859 0.14184853 -0.011199934
0001b0 9c 53 10 3c 04 b8 70 bd cb 3b 50 bd 8e 31 4a bd
       0.0088089965 -0.05876924 -0.050838273 -0.049363665
0001c0 d1 ef 17 bc fd 85 c0 bb 38 38 4d bc 5f 4f 2f 3e
       -0.009273485 -0.0058753476 -0.012525611 0.17120121
0001d0 4d 22 12 3d 74 2b 30 be c1 9b 10 bd 23 23 8f bd
       0.035677243 -0.17204076 -0.03530479 -0.06989124

cell_digit_net.classifier.2.weight f4 [84, 120]
000000 4c c9 85 be 5e 65 a5 bd 23 14 24 3d 18 7c c2 3c
       -0.2613014 -0.08075975 0.040058266 0.023740813
000010 4b ae 52 bc 6c 95 3d bd e9 6d 80 3d 47 f3 63 bd
       -0.0128589375 -0.046285078 0.06270964 -0.05565193
000020 f0 65 84 bc 85 2b a2 bd 18 33 d9 3c d3 10 4f bd
       -0.016161889 -0.07918457 0.026513621 -0.050553154
000030 01 c4 94 3d 80 7a f1 3e 59 ca 8d 3d 1c cc 35 be
       0.07263947 0.47163773 0.069233604 -0.17753643
000040 63 eb 6d 3d f8 ce c4 bd bd 68 4d bd 05 49 40 3d
       0.05808581 -0.09609789 -0.050148714 0.046944637
000050 ea 7e 44 be ed a8 3f 3d 99 5d da 3c 9e 25 32 bd
       -0.19189039 0.04679196 0.026655959 -0.043492906
000060 e0 68 c1 be 03 35 9a bd cc 20 68 bd 46 5b e1 3d
       -0.37775326 -0.075296424 -0.056671903 0.11003737
000070 d9 f2 a6 bd 10 ea 7f be d0 50 2a be 66 d6 82 bd
       -0.08151788 -0.24991632 -0.1663239 -0.063885495
000080 00 83 bd 3d 9f 72 cd bd d2 ed 95 be 4f 23 a7 3d
       0.09253502 -0.10031628 -0.29283005 0.081610315
000090 7c e3 60 be 44 ff 9c 3c b7 43 52 3d 60 85 1b 3e
       -0.21961778 0.019164689 0.05133411 0.15187597
0000a0 6e a5 55 3b 49 e1 85 3d 79 d0 0a 3e 66 5b 92 bd
       0.0032599824 0.0653711 0.13556089 -0.07146339
0000b0 39 22 90 3d ca 26 6d bd 91 37 4f 3d 57 53 29 bd
       0.070377775 -0.05789832 0.0505901 -0.041339245
0000c0 c5 c2 3e 3d 70 5c 8c 3d c6 0e 87 3d 3e 7f 02 3c
       0.046572465 0.068535686 0.06594615 0.007964907
0000d0 0c 14 40 bd e6 a8 14 be 8e 94 44 be c0 44 f5 bb
       -0.04689412 -0.14517555 -0.19197294 -0.0074850023
0000e0 bc 9e 5a 3d d4 3c 9f 3d 44 d3 ff 3c cd a9 2b bd
       0.053374037 0.07775274 0.031228669 -0.04190998
0000f0 5c 2b 2c be c4 10 0a be 2b 48 27 3d 68 ea 2c bc
       -0.16813415 -0.13482958 0.04084031 -0.010553934
000100 b9 dc 0d bd 62 67 bb 3d c5 c2 09 be 48 9c 86 bd
       -0.034634326 0.09150578 -0.13453205 -0.06572777
000110 78 1c b8 bc 91 10 85 3c 61 4a d3 bc af a5 48 bc
       -0.022474512 0.016243251 -0.025792303 -0.012246533
000120 ad c2 12 be c4 ff 44 be 18 0a 5d 3d 02 f2 e1 3e
       -0.14332075 -0.19238192 0.053964704 0.4412995
000130 3e 45 0d bc db c0 ce bd e4 b3 43 3e 36 ef d6 3b
       -0.008622466 -0.10095378 0.19111592 0.006559278
000140 4d 2d 3c bd 20 a4 69 3c d9 8f 49 35 6b 1f 35 bd
       -0.04594164 0.014260322 7.508766e-07 -0.044219416
000150 f5 c6 03 3d 98 a6 7a be b0 35 65 bc df d8 99 3e
       0.032172162 -0.24477613 -0.013989851 0.30048272
000160 04 91 92 bd 6c c3 00 3d 0f 25 38 bd 15 78 ca 3b
       -0.07156566 0.03143637 -0.044957217 0.0061788657
000170 66 d5 6c 3b ac 64 ec 3b 3e 5c 18 bd 99 1c e5 3b
       0.0036137938 0.0072141495 -0.037197344 0.0069919345
000180 05 80 95 bc fb 03 0a 3e 78 0a 0a 3d 58 20 57 3b
       -0.018249521 0.13478081 0.03370139 0.0032825675
000190 c9 69 f5 bd 7b 1c 55 be f0 25 06 3e 4e 46 00 be
       -0.119830675 -0.20811646 0.1310041 -0.12526819
0001a0 88 db 54 39 2c 3f f7 3d a3 7b 81 3a 6d 69 88 bd
       0.00020299677 0.12072596 0.0009878766 -0.06660733
0001b0 6a 90 e2 3d 6c a7 00 bd eb b6 58 bc 87 34 6d bd
       0.11062701 -0.031409666 -0.013227205 -0.057911422
0001c0 eb d0 d9 3c 12 b7 70 3d 81 47 5c bd ab a7 1c 3e
       0.026588878 0.05876834 -0.05377913 0.15298335
0001d0 11 de d1 bd c2 cb bc 3e 16 57 34 3d cb e0 76 3c
       -0.10247434 0.36874205 0.044028364 0.015068243
0001e0 0d d5 84 3d 1e 67 56 3c 82 16 06 bc 07 7d 95 3d
       0.06485949 0.0130861085 -0.008184077 0.07299238
0001f0 57 c8 88 3c 6d 18 59 3d 2b c1 f5 3c f1 be 56 3c
       0.016697092 0.05300181 0.029999336 0.013107047
000200 77 cc 1e bd 75 f0 56 3d 33 68 2d bd 9c 8e 0a bd
       -0.03876921 0.05247541 -0.0423357 -0.03382741
000210 f4 d5 95 bd 75 9d d2 bc 3e 08 6b bd ae 99 14 bd
       -0.07316199 -0.025709847 -0.057380907 -0.036279373
000220 10 b4 b1 bd 6d 2a 14 bd db 3b 8e 3c e8 5f e6 bc
       -0.08676922 -0.036173273 0.017362526 -0.028121904
000230 dc de 93 bd 00 f9 e6 bc 8d 5f 2a 3d 36 10 af bb
       -0.072202414 -0.028194904 0.04159503 -0.0053425087
000240 7c e3 0f bd a3 94 3c 3d f6 53 2a 3d 0a 62 47 bd
       -0.035129055 0.04604019 0.041583978 -0.04867748
000250 22 9a 96 3c d0 b5 c9 3c 8d e0 ce bd e5 23 76 bd
       0.018384043 0.024622828 -0.101014234 -0.060092825
000260 9e 18 ea bd c2 67 17 bc 97 a6 f3 bb 08 70 21 bd
       -0.114304766 -0.009241046 -0.0074356305 -0.039413482
000270 67 1c f4 bd e5 69 50 bd 60 0b 2c bd 27 c4 d7 bd
       -0.1191948 -0.05088224 -0.042003036 -0.1053546
000280 85 bb c5 bc 0c 8d 36 3c 9d 81 13 bc 8a 38 e0 3c
       -0.024137268 0.011142027 -0.00900307 0.02737071
000290 34 78 59 bd bd e1 56 3d d1 69 05 bd 24 31 68 3d
       -0.05309315 0.052461375 -0.032571618 0.05668749
0002a0 7c 6a 44 bd 0c a2 fa 3c 7e 18 61 bc 72 cf 2d 3d
       -0.047953114 0.030594848 -0.01373875 0.042434163
0002b0 c0 7c c8 bd 46 27 13 bd 6b 78 81 bd c9 9d d3 bd
       -0.09789419 -0.035926126 -0.06321796 -0.103328295
0002c0 62 44 0a bd ed c8 74 ba 2e 88 98 bd d9 5a 90 3d
       -0.03375662 -0.00093378016 -0.07447849 0.07048578
0002d0 5e c4 c8 bc ce 19 bb bd 49 89 26 3d 9d 70 e1 bc
       -0.024507698 -0.09135781 0.04065827 -0.027519519
0002e0 d1 a2 4e bc bd 10 c7 bd ea 98 8b 3d 66 96 04 3d
       -0.012612061 -0.097199894 0.068162754 0.032369994
0002f0 99 fa 3d bc bf aa 11 bd 15 bc 6b 3d d8 76 4a 3d
       -0.011595392 -0.035563227 0.057552416 0.049429744
000300 24 c9 33 bd 0c 94 3d bc 50 c0 a3 bd e0 9b fc bc
       -0.043892995 -0.011570942 -0.07995665 -0.030836046
000310 01 f3 a0 ba fa 37 ab bc 42 38 bf bc 19 dd 2a be
       -0.0012279452 -0.020900715 -0.023342256 -0.16685905
000320 e7 db 7f 3c 46 fa b7 bd 39 49 2c 3c 15 52 35 bd
       0.015616394 -0.08983283 0.0105155045 -0.044267733
000330 81 92 ed bc 2d 3a 18 be 07 4b a9 3d 52 3a 76 bd
       -0.029000523 -0.14865942 0.082662635 -0.060114212
000340 35 f3 c0 bd 74 3a 86 bd c1 3c 9f bc 2e 41 26 3d
       -0.09421388 -0.06554118 -0.01943815 0.040589504
000350 b3 97 27 bd 92 55 51 bd cf 73 05 3c a4 a5 8f bd
       -0.040916156 -0.051106997 0.008145287 -0.07014015
000360 e3 a9 c5 3c e0 ef b9 3c 80 7d b0 bd 78 06 9f 3d
       0.02412886 0.02269739 -0.08617687 0.07764906
000370 47 51 25 bd 5d 4e 98 3c 3b 20 75 bd d4 c3 ad bc
       -0.040360715 0.018592054 -0.05984519 -0.021211542
000380 b7 e1 1e bc 00 09 b1 bd 30 28 cc bd 96 13 a5 3d
       -0.009697369 -0.08644295 -0.09968603 0.08060376
000390 2e 4e 3d 3b d4 56 47 bd 25 59 6a ba 6c 44 6d bb
       0.002888571 -0.04866679 -0.0008939675 -0.0036204113
0003a0 28 ee 1b 3d db c9 b3 3a 5e e7 99 3d e4 99 f8 bc
       0.03806892 0.0013716774 0.07514833 -0.030346818
0003b0 3b b5 2b 3c ec c4 a5 bd 05 ef 5e bc a5 fb c5 3c
       0.01048022 -0.080942005 -0.013606791 0.024167845
0003c0 c7 db 3f 3e 6f fe 4b be fb 70 54 bd 8d ee 24 3d
       0.18736182 -0.19921277 -0.05186556 0.040266562
0003d0 45 84 79 3d d4 33 38 bd 93 9d 4c 3d bb 9a 02 be
       0.060917158 -0.044971302 0.049954962 -0.12754337
0003e0 d4 06 24 bd eb 01 d1 bb 73 28 25 be 68 06 40 3d
       -0.040045574 -0.0063784025 -0.16128711 0.04688111
0003f0 cb 81 1d 3d 47 c9 59 be b4 5f da 3d 2f 51 a9 bd
       0.03845386 -0.21268187 0.10662785 -0.08267438

cell_digit_net.classifier.2.bias f4 [84]
000000 e2 c7 9f 3e 73 4c 1d bd 81 5b 12 3e 25 5d 5b be
       0.31207186 -0.038402986 0.14292718 -0.2142225
000010 1d 68 c7 bc ce 6c 0c 3e 0c f0 32 3d a4 b1 de bd
       -0.024341637 0.1371338 0.043685958 -0.10873726
000020 54 a2 b5 3e f9 79 03 be ad da 59 3d 01 94 0b 3e
       0.3547541 -0.12839498 0.05318706 0.13630678
000030 fa 92 1d be 1c 9f 89 3e 6f 67 9a 3e cb 5d 14 3e
       -0.15388098 0.26879203 0.3015704 0.14488904
000040 85 a4 43 3d 07 39 84 3e 8a 66 c6 3c ea 43 25 be
       0.04776432 0.25824758 0.024218816 -0.16139188
000050 98 c1 e4 bd 60 c3 0d be 86 78 8e 3e 8a 29 a5 bc
       -0.111697376 -0.13844061 0.27826327 -0.020161409
000060 71 ff 29 3d 8e 86 f1 bd 8f 86 d4 3e 71 65 8a 3e
       0.041503374 -0.117932424 0.4150891 0.2703052
000070 c5 d8 08 be ad b5 06 3e 8f 56 2b be bd fd 92 3e
       -0.13363941 0.13155241 -0.16732238 0.28709212
000080 10 23 ae 3e ed b4 07 3e fd 74 95 bc a8 84 0e be
       0.34011126 0.13252611 -0.01824426 -0.13917792
000090 a1 60 19 be 07 a0 90 3e 51 40 ab 3e e0 78 de 3d
       -0.14978267 0.2824709 0.33447507 0.10862899
0000a0 1f f8 27 3d eb 72 04 be 2d 42 a1 3c a3 87 c9 3b
       0.04100811 -0.12934463 0.019684875 0.0061502024
0000b0 9e 21 af bd 53 cf 3c 3e 22 99 00 3d 2a f6 02 be
       -0.08551334 0.18438463 0.03139604 -0.12789217
0000c0 62 8f 3c 3c f1 fb 45 3e 65 ab ab 3e 74 27 a5 3d
       0.0115087945 0.1933439 0.335292 0.08064166
0000d0 dc 87 14 3e a1 88 36 be be 97 e5 3e 50 b5 29 3e
       0.14504951 -0.17825557 0.44842333 0.16573071
0000e0 73 73 b4 3e 1d 9d 63 3d b5 65 1c be 58 0f 7b 3e
       0.3524433 0.055569757 -0.15273173 0.24517572
0000f0 93 c2 4b bd 7a c1 51 3e 77 f9 c4 3d b4 71 ae 3c
       -0.049746107 0.20483962 0.09617894 0.021294452
000100 bc 79 e0 bc 00 19 83 3e e5 60 cd bd 65 86 9e bd
       -0.027401797 0.2560501 -0.10028247 -0.077404775
000110 6d cc de 3e e5 da 19 bc db d7 e5 bd 8e 27 dc 3d
       0.4351534 -0.009390567 -0.11222812 0.10749732
000120 84 73 c2 3d 17 51 6f 3e e5 a2 a3 bd e7 7a ec bd
       0.09494689 0.23370777 -0.07990054 -0.11546879
000130 a8 07 12 3e 5a df 99 3e 30 75 d6 bc da 34 95 3e
       0.14260733 0.30053216 -0.026178926 0.29141885
000140 d7 1e 21 be 3c 49 c3 3d ff 8d 8e bc 30 82 1f 3e
       -0.1573442 0.09535453 -0.017401693 0.15577006

cell_digit_net.classifier.4.weight f4 [10, 84]
000000 cc 2e 07 3f c0 ec fc bb 48 7d 48 be d5 30 da bd
       0.5280578 -0.0077186525 -0.19579041 -0.10653845
000010 5e d4 73 3d 15 b7 7b be 4c 5b 91 3e 54 3e af be
       0.0595287 -0.24581559 0.28389966 -0.3422724
000020 3f 84 f0 3e 60 9f 88 be 5c e5 52 be 57 6a 05 3f
       0.46975896 -0.26684093 -0.20595306 0.52115387
000030 66 24 a7 3b 15 f1 6d bd 03 59 bc 3e a2 47 4a 3d
       0.0051007746 -0.058091242 0.3678666 0.04938472
000040 0d a2 a1 be d7 e7 c6 3e 9e 72 96 be 54 1e 74 3d
       -0.31568947 0.38848755 -0.2938432 0.059599236
000050 a4 9d 95 3e 6a 6d d2 3c e5 f0 ae 3e 14 92 23 be
       0.29221833 0.025686938 0.34168163 -0.15973693
000060 e1 5c 97 be 47 a3 b8 be 05 c5 82 3e c9 a1 57 3e
       -0.29563048 -0.3606207 0.2554094 0.2105781
000070 de d3 84 3d 91 8f 1a be 5e 04 82 be 4d fa 1f 3f
       0.06485723 -0.15093829 -0.25393957 0.62491304
000080 32 0f 08 3e 91 c6 0d 3f 9c 36 ca 3e eb c4 81 bd
       0.13287047 0.55381113 0.3949479 -0.06336387
000090 02 03 96 bc 00 79 ff 3e 78 22 1a 3f 5c 2d 38 3e
       -0.018311981 0.49897003 0.60208845 0.17986053
0000a0 62 d0 5d be 09 77 be 3d 46 fc c3 bd 79 73 23 be
       -0.21661523 0.09300048 -0.09569602 -0.15962018
0000b0 cb 2d 7d bd e0 2e f8 bd 57 ff 2f be 06 c1 01 bd
       -0.06181125 -0.12118316 -0.17187248 -0.031678222
0000c0 f7 76 b1 3e 0f 02 63 be e5 1d 2e 3f 87 2d a3 be
       0.34661075 -0.22168754 0.68014365 -0.31870672
0000d0 20 5a ed bd 1e 28 04 3e d0 8d 75 3f 57 fd 1d be
       -0.115894556 0.12905928 0.95919514 -0.15428673
0000e0 17 11 ce 3e 09 71 75 be b5 df a3 bb 8d 8c dc 3e
       0.40247414 -0.239689 -0.005001033 0.43075982
0000f0 4a ce a3 3e b3 4b 96 3e 39 7a 20 3e 6e eb 97 bd
       0.31993324 0.2935463 0.15671624 -0.074179515
000100 52 fe 5d be ac 22 02 3f f4 f6 5d bd a7 14 a4 bd
       -0.21679047 0.50834155 -0.05419059 -0.080117516
000110 5a 72 41 3f 13 ba 95 3d fd 31 bf ba 6d 9f 02 be
       0.7556511 0.073108815 -0.0014587041 -0.12756129
000120 1a 5d d2 bd 2c ca 02 3f 51 c2 19 bc 43 1e 35 bd
       -0.10271664 0.5108974 -0.009384708 -0.044218313
000130 99 c1 49 be b0 f5 d7 3e c1 c6 a0 be 38 af fc 3e
       -0.19702758 0.42179632 -0.31401637 0.4935243
000140 42 d1 60 3b fe 74 56 be 6e e6 1f 3d d0 18 b4 be
       0.0034304415 -0.20943066 0.039038114 -0.3517518
000150 43 39 10 3f fb c3 91 3d 5f fc 02 bf f6 6a 28 3d
       0.56337374 0.071174584 -0.5116634 0.04111763
000160 07 c5 bc 3d ee 7a dd be 44 63 a1 3e 8c 24 34 be
       0.092172675 -0.4325785 0.31521046 -0.17592067
000170 8e 95 0f 3f d8 c2 3a be 82 ce b6 be be 34 13 3e
       0.5608758 -0.1823839 -0.35704428 0.14375588
000180 5f 7d 54 bc 77 50 02 be 24 1e 03 3f 46 61 a2 bd
       -0.012969344 -0.12726007 0.51217866 -0.0792871
000190 bc 33 35 be 92 1f 0e 3e ef 1c b6 be 4b e5 cd bc
       -0.17695516 0.1387923 -0.3556895 -0.02513375
0001a0 d3 5b 09 3b de a8 91 3d 70 88 65 3e fb 2c 13 be
       0.0020959273 0.07112287 0.22415328 -0.14372627
0001b0 c1 20 f6 be 15 f6 6c be 33 a3 71 3e 59 c9 36 3e
       -0.48071864 -0.23140748 0.23597412 0.17850246
0001c0 95 c2 17 3c b4 85 79 be 09 ff 8c be 0e 00 37 3f
       0.009262701 -0.2436741 -0.27538326 0.7148446
0001d0 71 46 20 3e 4d e1 71 3e aa 52 5d 3e ce 8d 98 3d
       0.15651871 0.23621102 0.21613565 0.07448922
0001e0 d7 b0 71 bd 4e 85 ec 3e 85 41 19 3f 71 eb 0e be
       -0.05900654 0.46195453 0.598656 -0.13957001
0001f0 b2 60 56 be c1 5d e8 3d 7a a7 7e be 53 41 b0 be
       -0.20935324 0.11346007 -0.24868575 -0.34424838
000200 e3 89 1d 3d 52 4e 62 be 78 3f 88 be 19 78 4c 3d
       0.038461577 -0.2210019 -0.26610923 0.04991922
000210 ff a8 b0 3e ca db 97 be c9 94 49 3f b7 7c 0f bf
       0.34503934 -0.29659873 0.78742653 -0.56049675
000220 28 79 66 be 35 13 3d 3e ce 65 2c 3f 99 61 8d be
       -0.22507155 0.18464358 0.6734284 -0.27613524
000230 89 dd c2 3e 7c 2c 93 be ed dc a8 bd 7c bd f6 3e
       0.38059643 -0.28744876 -0.08245263 0.4819144
000240 b1 64 dd 3e 70 4c be 3e 32 73 9a 3d d0 c5 90 be
       0.43240884 0.37167692 0.07541503 -0.2827592
000250 51 88 16 be 87 58 3a 3f 28 d5 4a be b7 96 ce be
       -0.14700438 0.7279133 -0.19807875 -0.4034936
000260 cd 91 54 3f f0 3c ec 3d d3 25 a0 3d 14 0d 2b be
       0.83034974 0.115350604 0.078197144 -0.16704208
000270 21 e7 14 bd a9 2a 15 3f 97 1f ba 3b 16 4b e5 3d
       -0.036353234 0.5826822 0.0056800353 0.11195962
000280 fc 06 02 bf 88 3a c9 3e c1 3c 4f be 36 f7 90 3e
       -0.5079191 0.39302468 -0.2023802 0.28313607
000290 86 13 22 bc 9c f1 45 be 0f fb 9b bd cc 43 25 bf
       -0.00989235 -0.19330448 -0.07616245 -0.64556575
0002a0 48 d5 23 3f 14 de ca bd 6c 81 02 bf 5a 8f cd 3d
       0.63997316 -0.09905639 -0.5097873 0.10037108
0002b0 8d 15 d1 bc c2 ac e0 be 33 28 b5 3e 1b f5 80 be
       -0.025522972 -0.43881804 0.35382232 -0.25187
0002c0 07 a7 1d 3f b1 cc c5 bd bd e3 84 be dc c9 93 3e
       0.6158299 -0.096581824 -0.25955 0.28864944
0002d0 c4 9e 81 bc 2d 53 06 be 65 56 cd 3e 65 82 cf 3c
       -0.015822776 -0.13117667 0.40104976 0.025330732
0002e0 6b e5 51 be c0 34 18 3e 63 8b 9c be ed ed 36 be
       -0.20497672 0.14863873 -0.30575094 -0.17864199
0002f0 d0 83 0a 3e f5 ce 8d 3d f4 51 2b 3e 17 73 c1 bd
       0.13526845 0.069242395 0.16730481 -0.0944578
000300 c2 39 03 bf 4f a6 02 be 07 0a 9c 3e 7e 3d 8f 3e
       -0.51260006 -0.12758754 0.304764 0.27976602
000310 f1 cc b0 3d 92 c8 5d be cd ba 6f be 8b e1 1d 3f
       0.086328395 -0.21658543 -0.23411103 0.61672276
000320 4a 9e fc 3d 70 09 9c 3e 80 80 5b 3e 58 a6 43 3b
       0.12334879 0.3047595 0.21435738 0.0029853787
000330 c8 f2 59 bd cb 5a b5 3e c3 31 14 3f 64 d1 b2 bd
       -0.05321005 0.35420832 0.5788843 -0.08731344
000340 79 8f 0b be db 79 2d 3e 10 34 bc be 38 36 14 be
       -0.13628949 0.16941015 -0.3675847 -0.14473808
000350 bc b9 93 3d 93 68 3e be 3c 7f 16 be d6 53 8f bd
       0.072131604 -0.1859458 -0.14696974 -0.06998412
000360 83 80 bf 3e 93 7a a1 be 3d 48 30 3f 5a 96 1f bf
       0.37402734 -0.3153883 0.68860227 -0.62338793
000370 61 d7 19 be 8c c3 5a 3e b5 72 3d 3f d0 98 1e be
       -0.15023567 0.21363658 0.74003154 -0.15487981
000380 70 03 b9 3e 89 56 66 be d2 d5 30 be 59 e4 f0 3e
       0.36135435 -0.22493948 -0.17269066 0.47049215
000390 49 b8 b7 3e 50 0b bc 3e 09 de ed 3d 29 a3 59 be
       0.35882786 0.3672738 0.116146155 -0.21253647
0003a0 57 72 46 be 26 90 38 3f c6 36 02 be 9a c1 b9 be
       -0.19379555 0.72094953 -0.12716207 -0.3628052
0003b0 a9 46 3f 3f 4a a6 0b 3e 54 ac d2 3d b8 e0 79 be
       0.74717194 0.13637653 0.10286775 -0.2440213
0003c0 fc d0 f6 bd 9f 0a 13 3f 15 77 92 bc 78 2e c8 3c
       -0.12051579 0.5743808 -0.017879048 0.02443622
0003d0 b0 86 0d bf 1b 04 de 3e e3 3b 91 be 44 2f 23 3f
       -0.5528364 0.43362507 -0.28366002 0.63743997
0003e0 c8 54 4f bd 04 e7 69 be 99 e4 c4 bc d2 bb 1c bf
       -0.050617963 -0.22842032 -0.024034785 -0.6122409
0003f0 71 29 d4 3e 07 4a ed 3c 3d 51 fe be 93 ad e2 3d
       0.41437867 0.028965963 -0.49671355 0.11068263

cell_digit_net.classifier.4.bias f4 [10]
000000 51 66 12 be b6 d6 b1 3c 21 26 06 be b1 f8 20 be
       -0.14296843 0.021708827 -0.13100483 -0.15719868
000010 1b 8d 43 be 7f 35 01 be 3c 36 ba bd 45 01 1a be
       -0.19096796 -0.12618063 -0.09092376 -0.15039547
000020 a7 67 a2 be 0e ca 68 3e
       -0.31719705 0.22733328
